[2024-12-07 20:59:57 _07-12-20] (train.py 201): INFO Creating model:Net(
  (proj): LiquidNet(
    (liquid_step): LiquidTimeStep(
      (W_in): Linear(in_features=15, out_features=32, bias=True)
      (W_h): Linear(in_features=32, out_features=32, bias=True)
    )
    (output_layer): Linear(in_features=32, out_features=32, bias=True)
  )
  (mamba): Mamba(
    (layers): ModuleList(
      (0-7): 8 x ResidualBlock(
        (mixer): MambaBlock(
          (in_proj): Linear(in_features=32, out_features=128, bias=False)
          (conv1d): Conv1d(64, 64, kernel_size=(4,), stride=(1,), padding=(3,), groups=64)
          (x_proj): Linear(in_features=64, out_features=34, bias=False)
          (dt_proj): Linear(in_features=2, out_features=64, bias=True)
          (out_proj): Linear(in_features=64, out_features=32, bias=False)
        )
        (norm): RMSNorm()
      )
    )
    (attention): ModuleList(
      (0-7): 8 x LiquidAttention(
        (query): LiquidNet(
          (liquid_step): LiquidTimeStep(
            (W_in): Linear(in_features=32, out_features=64, bias=True)
            (W_h): Linear(in_features=64, out_features=64, bias=True)
          )
          (output_layer): Linear(in_features=64, out_features=64, bias=True)
        )
        (key): LiquidNet(
          (liquid_step): LiquidTimeStep(
            (W_in): Linear(in_features=32, out_features=64, bias=True)
            (W_h): Linear(in_features=64, out_features=64, bias=True)
          )
          (output_layer): Linear(in_features=64, out_features=64, bias=True)
        )
        (value): LiquidNet(
          (liquid_step): LiquidTimeStep(
            (W_in): Linear(in_features=32, out_features=64, bias=True)
            (W_h): Linear(in_features=64, out_features=64, bias=True)
          )
          (output_layer): Linear(in_features=64, out_features=64, bias=True)
        )
        (out): LiquidNet(
          (liquid_step): LiquidTimeStep(
            (W_in): Linear(in_features=64, out_features=32, bias=True)
            (W_h): Linear(in_features=32, out_features=32, bias=True)
          )
          (output_layer): Linear(in_features=32, out_features=32, bias=True)
        )
        (softmax): Softmax(dim=-1)
      )
    )
    (norm_f): RMSNorm()
  )
  (dense): LiquidNet(
    (liquid_step): LiquidTimeStep(
      (W_in): Linear(in_features=32, out_features=1, bias=True)
      (W_h): Linear(in_features=1, out_features=1, bias=True)
    )
    (output_layer): Linear(in_features=1, out_features=1, bias=True)
  )
  (act): Tanhshrink()
)
[2024-12-07 20:59:57 _07-12-20] (train.py 94): INFO Start training
